app/src/main/assets/my_model2.tflite (tflite, 718132 bytes, 32 tensors)

sequential/tcn/residual_block_6/conv1D_1/BiasAdd/ReadVariableOp f4 [64]
0	0x3cf4ea67	0.029896928
1	0xbdb10c63	-0.08644941
2	0x3e14b762	0.1452308
3	0x3e501386	0.20319948
4	0xbe363456	-0.17793402
5	0xbd7712ab	-0.060320538
6	0xbd81454b	-0.06312045
7	0xbc0a2a58	-0.008432947
8	0xbd99ecda	-0.07515879
9	0xbcff84b7	-0.031191213
10	0x3e32b14f	0.1745045
11	0xbd864088	-0.06555277
12	0xbe3f8876	-0.187044
13	0xbdebc174	-0.11511508
14	0xbe23d390	-0.15998673
15	0xbd190af9	-0.03736398
16	0xbe001f6d	-0.12511988
17	0xbe993d6e	-0.2992968
18	0x3dfb132c	0.12259516
19	0x3e424d99	0.18974914
20	0xbc29e775	-0.010370125
21	0xbdfae5af	-0.1225084
22	0xbda090ef	-0.07840144
23	0x3b25a0b0	0.002527278
24	0xbdf782f7	-0.120855264
25	0xbe2049b2	-0.15653113
26	0x3d43d31b	0.047808748
27	0xbdb40bad	-0.087912895
28	0xbe10b5fe	-0.14131925
29	0x3e15f659	0.14644755
30	0xbe0436b6	-0.12911496
31	0xbea97a2f	-0.3310103
32	0xbe0069ea	-0.12540403
33	0xbde2a593	-0.11066737
34	0x3da9f040	0.08297777
35	0x3de86b48	0.11348587
36	0x3e03c833	0.12869339
37	0x3e612494	0.2198661
38	0xbe8baa58	-0.272784
39	0xbdef8a2d	-0.11696277
40	0xbe417f88	-0.18896306
41	0x3e7d9f74	0.24767858
42	0xbdbcf3df	-0.09226202
43	0xbe2c9ec8	-0.16857445
44	0x3cfeb11e	0.031090315
45	0x3b1e9a3c	0.0024200818
46	0x3ddd79ef	0.108142726
47	0x3d98b665	0.07456664
48	0x3cbb38ba	0.022854198
49	0xbd87d536	-0.06632464
50	0x3da63d4c	0.0811716
51	0x3e06a9d5	0.13150723
52	0xbdeb1d77	-0.11480229
53	0xbe4bad75	-0.19890387
54	0xbe6ba7d4	-0.2301324
55	0x3c1d9f30	0.009620473
56	0xbd187266	-0.037218474
57	0xbcb852ab	-0.022500357
58	0x3d16d4de	0.0368241
59	0x3d304084	0.043030277
60	0xbe5e1566	-0.2168785
61	0xbdc84401	-0.09778596
62	0xbce80d5f	-0.028326688
63	0xbd6c4809	-0.057685886

sequential/tcn/residual_block_6/conv1D_0/BiasAdd/ReadVariableOp f4 [64]
0	0xbd075d48	-0.033047944
1	0x3e0ccb2f	0.13749383
2	0xbc37307a	-0.011180991
3	0x3a14e321	0.0005679597
4	0xbe8a486a	-0.27008373
5	0x3d13678a	0.035987414
6	0xbe3d8a47	-0.1850978
7	0x3dfb4f5f	0.12270998
8	0x3dae6190	0.08514702
9	0xbeacaeab	-0.3372701
10	0x3d408c7f	0.047008988
11	0xbdce8ddd	-0.10085652
12	0xbec99d7f	-0.39377972
13	0xbe670f06	-0.22564325
14	0xbcb95fd5	-0.022628704
15	0xbe9c5615	-0.30534425
16	0xbcafb65f	-0.021449266
17	0x3da53138	0.08066028
18	0xbe5514d3	-0.20808725
19	0x3da0c742	0.078505054
20	0xbeab4354	-0.33449805
21	0x3cf2147c	0.029550783
22	0x3dadf546	0.08494048
23	0xbd16ac1a	-0.036785223
24	0x3dc9f51c	0.09861204
25	0xbd5500e7	-0.052002814
26	0xbd5303eb	-0.05151741
27	0x3dece61c	0.115673274
28	0x3dc416f5	0.09574691
29	0xbe86e4e4	-0.26346505
30	0xbd4f673a	-0.050635554
31	0x3dc9c182	0.09851362
32	0x3cf486c7	0.029849423
33	0xbe0947c6	-0.13406286
34	0xbd6a9846	-0.057274126
35	0xbe41c4ce	-0.18922731
36	0x3c05e29a	0.008171702
37	0x3d60428e	0.05475097
38	0xbdc29431	-0.095009215
39	0xbd9a4b63	-0.0753391
40	0x3e0daabe	0.13834664
41	0x3e2ac359	0.16676082
42	0xbd237d36	-0.039914332
43	0xbdb4f6e0	-0.0883615
44	0xbe4001bd	-0.18750663
45	0x3d6c4f5e	0.057692878
46	0xbe8ec90b	-0.2788776
47	0x3e08ea4e	0.1337063
48	0xbd55c711	-0.052191798
49	0x3d5267fe	0.051368706
50	0x3db4d3c3	0.08829453
51	0x3d2a5afc	0.041590676
52	0xbdc886d9	-0.09791345
53	0xbd3e1f0c	-0.046416327
54	0x3e01899b	0.12650149
55	0xbacc6d7a	-0.0015596591
56	0xbe065232	-0.13117293
57	0xbd5f419f	-0.05450594
58	0x3df705b2	0.12061633
59	0x3df00f3f	0.11721658
60	0x3cb90553	0.022585547
61	0x3dc31c06	0.095268294
62	0x3dc88eca	0.0979286
63	0xbe082894	-0.1329673

sequential/tcn/residual_block_5/conv1D_1/BiasAdd/ReadVariableOp f4 [64]
0	0x3d5d29e2	0.05399502
1	0xbd20cecf	-0.039259728
2	0xbc3fe0eb	-0.0117113395
3	0xbd1aa57e	-0.037755482
4	0x3e15880d	0.1460268
5	0xbe0ec3a2	-0.13941815
6	0xbd5055c9	-0.05086306
7	0x3dff537f	0.124670975
8	0xbe368d00	-0.17827225
9	0xbe535ad1	-0.20640112
10	0xbde52f1b	-0.11190625
11	0xbdd2fc91	-0.103020795
12	0xbc842e87	-0.016135467
13	0xbe460d27	-0.19340955
14	0x3e63d79c	0.22250217
15	0xbdf9e997	-0.12202757
16	0xbda25515	-0.07926384
17	0xbd758a77	-0.059946503
18	0xbe08f52c	-0.13374776
19	0xbd55dcb2	-0.052212425
20	0xbd1db7d5	-0.038505394
21	0xbd9c301e	-0.07626365
22	0xbd863ed7	-0.065549545
23	0xbdc42cf8	-0.095788896
24	0xbd5886dc	-0.052862987
25	0xbe95259b	-0.29130253
26	0xbe812efa	-0.25231153
27	0xbd7fe358	-0.06247267
28	0x3dfebba7	0.124381356
29	0x3d1d996d	0.038476396
30	0xbdb4b80b	-0.08824166
31	0xbd77064d	-0.060308743
32	0xbe2e6fd0	-0.1703484
33	0xbde1cfbe	-0.11025952
34	0xbe8af69c	-0.27141273
35	0xbe1c0bf1	-0.1523893
36	0x3dc03843	0.09385731
37	0x3cfabbdd	0.030607158
38	0x3c4e29ab	0.012583177
39	0xbe06bce0	-0.13157988
40	0xbe1487ca	-0.14504924
41	0x3d8ae603	0.067821525
42	0xbc34a623	-0.011025938
43	0xbcf1dab1	-0.029523226
44	0x3d6d14e1	0.05788124
45	0xbe1bea15	-0.15226014
46	0xbdcecdbe	-0.10097836
47	0xbcc92add	-0.024556572
48	0xbe43c0ba	-0.19116488
49	0xbe4bd063	-0.19903712
50	0x3e13be24	0.14428002
51	0xbe1b59b4	-0.15170938
52	0xbe1366b0	-0.14394641
53	0xbd92c4c9	-0.0716644
54	0x3de2eddc	0.11080524
55	0xbe975605	-0.29557815
56	0x3bf10b75	0.007356102
57	0x3e91a330	0.28444815
58	0xbe15efb9	-0.14642228
59	0xbe093c33	-0.1340187
60	0x3e161d30	0.14659572
61	0xbc1aaa82	-0.009440066
62	0xbe08af35	-0.13348086
63	0xbdf9ccf8	-0.12197298

sequential/tcn/residual_block_5/conv1D_0/BiasAdd/ReadVariableOp f4 [64]
0	0xbdf402a8	-0.11914569
1	0xbdb47bc0	-0.08812666
2	0xbdb7ad68	-0.089686215
3	0x3d940083	0.0722666
4	0x3e7eb3da	0.24873295
5	0xbe3b63c4	-0.18299776
6	0x3d0d8c63	0.03455771
7	0xbd04dea7	-0.0324389
8	0x3c4c1f7a	0.0124586765
9	0xbdf15681	-0.117840774
10	0x3d23f510	0.04002863
11	0xbe0eda98	-0.13950574
12	0xbd83ba16	-0.064319775
13	0xbdda5e50	-0.1066252
14	0xbde3f86f	-0.11131369
15	0x3d268d41	0.040662054
16	0x3dcea385	0.100897826
17	0x3df6dc6f	0.12053763
18	0xbe100ab7	-0.14066587
19	0xbc7e1bcb	-0.015509556
20	0xbcab9052	-0.02094284
21	0xbd9b8421	-0.07593561
22	0xbd81dfc1	-0.06341506
23	0xbe252dd3	-0.16130762
24	0x3da2c35a	0.079474166
25	0x3d33c1a7	0.043885853
26	0x3e0006e3	0.12502627
27	0x3db23be3	0.08702829
28	0xbd92b993	-0.07164302
29	0xbd67bdf4	-0.056577638
30	0x3d3d2e76	0.046186887
31	0x3e459e7e	0.19298741
32	0xbd367315	-0.044543345
33	0x3d7a51dd	0.061113227
34	0x3dae545b	0.08512183
35	0xbe5de06e	-0.21667644
36	0x3d4d304e	0.050094895
37	0xbe2070f4	-0.15668088
38	0x3d2c46b6	0.042059623
39	0xbdeafbfd	-0.11473844
40	0xbde14dd0	-0.1100117
41	0x3d463df8	0.04839894
42	0xbd3311bb	-0.04371808
43	0xbd3ad46a	-0.04561273
44	0x3d74614d	0.059663106
45	0x3dfe6899	0.12422294
46	0xbe2c2561	-0.16811134
47	0xbe7eb7b6	-0.24874768
48	0xbe30a3ee	-0.17250034
49	0x3e3e806f	0.18603681
50	0xbdd95a5b	-0.10612937
51	0xbe7a4660	-0.24440908
52	0xbdcad275	-0.09903423
53	0x3e8b39f1	0.27192643
54	0x3d118903	0.035531055
55	0x3c972d9f	0.018454371
56	0x3cd6ffb2	0.026244972
57	0xbd1de899	-0.0385519
58	0x3da13a52	0.07872452
59	0x3e075fcd	0.13220139
60	0x3e1a369b	0.15059893
61	0xbe1a86cb	-0.15090482
62	0xbd568523	-0.052373063
63	0xbe4174cb	-0.18892209

sequential/tcn/residual_block_4/conv1D_1/BiasAdd/ReadVariableOp f4 [64]
0	0xbe2fa75c	-0.17153686
1	0xbd840c41	-0.0644765
2	0x3d06d110	0.03291422
3	0xbe8d149f	-0.27554795
4	0xbe011838	-0.12606895
5	0xbe6a729d	-0.22895284
6	0xbdb4dba5	-0.08830956
7	0xbda7bce2	-0.081903234
8	0xbe68be8a	-0.22728935
9	0xbe2fa3ae	-0.17152283
10	0xbd9fb756	-0.077986404
11	0xbe137a83	-0.14402203
12	0xbd870c6e	-0.06594168
13	0xbe3013f1	-0.17195107
14	0x3dc4a59d	0.09601901
15	0xbe41573f	-0.18880938
16	0xbdc4ed56	-0.09615581
17	0xbdcd9d56	-0.10039775
18	0xbe0a2f72	-0.13494661
19	0x3c601dae	0.013678951
20	0xbe81ec9d	-0.25375834
21	0xbe3220f1	-0.17395379
22	0xbe2bda6f	-0.16782545
23	0xbd26a8a0	-0.040688157
24	0x3e282e1f	0.16423844
25	0xbd38d30d	-0.04512315
26	0xbe65bbf6	-0.22434983
27	0xbe8a7b26	-0.2704708
28	0x3e11f5ba	0.14253893
29	0xbe4321e3	-0.19055896
30	0xbdb2d11b	-0.0873129
31	0xbe0b4c58	-0.13603342
32	0x3d87ded3	0.06634297
33	0x3d4f2edf	0.05058181
34	0xbc1057b0	-0.008809969
35	0xbdb900d6	-0.090333626
36	0xbe7c75a6	-0.24654254
37	0x3df33349	0.11875016
38	0xbe49c679	-0.19704618
39	0xbd878e88	-0.066189826
40	0xbe215a37	-0.1575707
41	0xbe3375ae	-0.1752536
42	0xbd269929	-0.04067341
43	0xbe3e5b04	-0.18589407
44	0xbd22a7e2	-0.039710887
45	0xbd2a0056	-0.041504227
46	0x3d8a0b3e	0.067404255
47	0xbe93aeaa	-0.28844196
48	0x3d04a8f4	0.03238769
49	0xbe9cc1aa	-0.30616504
50	0xbe0db874	-0.13839895
51	0xbdf4bbf0	-0.11949909
52	0xbe7bb447	-0.24580489
53	0xbe5dafae	-0.21649048
54	0x3e1419f5	0.14463027
55	0xbe04e9a7	-0.12979756
56	0xbe12a745	-0.14321621
57	0xbe68a3f5	-0.22718795
58	0xbc181586	-0.009282475
59	0xbdf82532	-0.121164694
60	0xbe83cda5	-0.25742832
61	0x3cf9b69d	0.030482585
62	0xbe84ad44	-0.2591344
63	0xbe8e0397	-0.27737114

sequential/tcn/residual_block_4/conv1D_0/BiasAdd/ReadVariableOp f4 [64]
0	0xbc3abf0d	-0.011398089
1	0x3d5424bd	0.05179285
2	0x3c881391	0.016610892
3	0xbdb34e26	-0.0875514
4	0xbdc99533	-0.098429106
5	0xbcacaf93	-0.021079814
6	0x3d80aac0	0.06282568
7	0xbdcd7646	-0.100323245
8	0xbc6d3265	-0.014477347
9	0xbcfbc36e	-0.030732837
10	0x3d30621f	0.043062326
11	0x3d57ec40	0.05271554
12	0x3dbfb848	0.09361321
13	0xbd4ffdfe	-0.050779335
14	0xbdac7f08	-0.08422667
15	0xbce3c54a	-0.027804036
16	0xbde12a46	-0.10994391
17	0x3d270190	0.040772974
18	0x3d37b5cc	0.04485111
19	0xbd863a0a	-0.06554039
20	0x3d9dd152	0.0770594
21	0xbb6db993	-0.003627394
22	0xbd4b6aba	-0.04966233
23	0x3bc62eba	0.0060480507
24	0xbd32aaa5	-0.04361977
25	0xbbb447b9	-0.005501714
26	0x3c6175d1	0.013761
27	0x3d522aa8	0.05131021
28	0xbe0eba48	-0.13938248
29	0xbe043b8b	-0.12913339
30	0xbe1621fc	-0.14661402
31	0xbdb4cba1	-0.08827902
32	0xbe06dc48	-0.13169968
33	0xbd2c327c	-0.042040333
34	0xbde0ebd2	-0.10982479
35	0x3baae77d	0.005215584
36	0xbe403e6e	-0.18773815
37	0xbd886355	-0.06659571
38	0x3de17cb7	0.110101156
39	0xbdd582c4	-0.10425332
40	0xbdbc9d12	-0.09209646
41	0xbd589206	-0.052873634
42	0xbe1aec76	-0.15129265
43	0xbc8f75d9	-0.017512249
44	0xbdcea9a1	-0.10090948
45	0xbe2edf59	-0.17077388
46	0x3d7ca0b0	0.06167668
47	0x3d76cf2d	0.060256172
48	0x3d34f31d	0.044177163
49	0xbd9e2358	-0.07721585
50	0x3d082255	0.033235867
51	0xbdff05c7	-0.12452274
52	0xbd6e9c9f	-0.058254834
53	0xbdf8fc15	-0.12157456
54	0x3d7df379	0.06199977
55	0xbd1b7f37	-0.03796312
56	0x3dbfd56f	0.09366881
57	0x3d0cd4d6	0.034382664
58	0x3d673baf	0.056453403
59	0xbc0031aa	-0.007824341
60	0xbd8bc6d6	-0.06825034
61	0xbd967e31	-0.07348288
62	0xbdc52c92	-0.09627642
63	0xbd80ca6b	-0.06288608

sequential/tcn/residual_block_3/conv1D_1/BiasAdd/ReadVariableOp f4 [64]
0	0xbd0af9aa	-0.033929504
1	0xbccb2cb1	-0.024801584
2	0xbb8ec4b7	-0.0043569463
3	0xbe9ab726	-0.30217856
4	0xbe0feed6	-0.14055952
5	0xbe5f6e2a	-0.21819368
6	0x3d481f6c	0.04885809
7	0xbbc13a0e	-0.0058968132
8	0xbe0cbf81	-0.13744928
9	0xbc510e18	-0.012759708
10	0x3d9cb09f	0.07650875
11	0xbe20a7c9	-0.15689005
12	0xbd7cef6a	-0.06175176
13	0xbe68994d	-0.2271473
14	0xbd8ce3d1	-0.0687939
15	0xbb6ac70e	-0.0035824212
16	0xbcd5e5b8	-0.026110515
17	0xbe27b695	-0.16378243
18	0xbe44288d	-0.19156094
19	0xbd89fcd8	-0.06737679
20	0xbdb5e4b9	-0.08881516
21	0xbdefba93	-0.11705508
22	0x3d3b48cf	0.045723733
23	0xbdb37427	-0.08762389
24	0xbe1434b6	-0.14473233
25	0xbe3c71a7	-0.1840273
26	0xbe829e03	-0.25511178
27	0xbe011b50	-0.12608075
28	0xbd91cc8e	-0.07119094
29	0xbe062ab5	-0.13102229
30	0xbdd08796	-0.10182111
31	0x3d34962b	0.044088524
32	0x3cb919b0	0.022595257
33	0xbdf84769	-0.121229954
34	0xbe4baa1f	-0.19889115
35	0xbd8e76e8	-0.06956273
36	0xbd39d3d8	-0.045368046
37	0xbe2d2522	-0.16908696
38	0xbd7a53d1	-0.06111509
39	0xbd5cbae9	-0.05388919
40	0xbe2c081a	-0.16799966
41	0xbe0835f3	-0.1330183
42	0xbce1daac	-0.027570091
43	0xbd9a76c6	-0.075421855
44	0xbd911e14	-0.07085815
45	0xbe32f097	-0.1747459
46	0xbd9d46e9	-0.07679541
47	0xbe3999d1	-0.18125083
48	0xbe462e91	-0.19353701
49	0xbdf7b725	-0.12095479
50	0x3c344eae	0.011005087
51	0xbe1adcbd	-0.15123267
52	0xbda18b61	-0.078879125
53	0xbde02865	-0.10945205
54	0xbdb65ec0	-0.08904791
55	0xbe6ff8a3	-0.23434691
56	0xbda891f2	-0.08230962
57	0xbd5312f5	-0.05153175
58	0x3c705441	0.014668525
59	0xbdb8d7f0	-0.09025562
60	0xbe2d0102	-0.16894916
61	0xbdb46236	-0.08807795
62	0xbe23c067	-0.15991364
63	0xbdd03397	-0.1016609

sequential/tcn/residual_block_3/conv1D_0/BiasAdd/ReadVariableOp f4 [64]
0	0xbd8bb2bb	-0.068211995
1	0xbc7d2840	-0.015451491
2	0x3d0f51df	0.034990188
3	0xbe1437aa	-0.14474359
4	0x3d4dbdd1	0.05022985
5	0xbdcba089	-0.09942729
6	0xbd15fb15	-0.036616404
7	0xbcc36a5c	-0.023854427
8	0xbdb1008c	-0.086426824
9	0xbd6ecd68	-0.05830136
10	0xbce422b8	-0.027848586
11	0xbda4d3cf	-0.08048212
12	0xbdc293fe	-0.095008835
13	0xbca302be	-0.019898769
14	0xbd2f2759	-0.042762134
15	0xbcf20dd3	-0.029547608
16	0xbcc3c408	-0.023897186
17	0xbd3b9773	-0.04579873
18	0xbcdda72e	-0.027057257
19	0x3ca2e9de	0.019886907
20	0xbcdcbe99	-0.026946353
21	0xbde4cc8d	-0.111718275
22	0xbb3878ec	-0.0028148247
23	0xbc96650a	-0.018358726
24	0xbdd1b525	-0.10239629
25	0x3d68fb19	0.05688009
26	0x3da53b0d	0.08067904
27	0xbdd8e354	-0.105902344
28	0xbdeb378a	-0.114852026
29	0xbc3c265a	-0.011483753
30	0x3aa6018b	0.0012665255
31	0xbd263199	-0.040574644
32	0xbdaa67a5	-0.0832055
33	0xbd757a69	-0.059931193
34	0x39d6065e	0.00040822005
35	0x3be3c76b	0.0069512627
36	0x3dc5c84b	0.096573435
37	0xbd4636e5	-0.048392195
38	0x3d117bff	0.035518643
39	0xbd785666	-0.06062927
40	0x3d2a1648	0.041525155
41	0x3ccd796b	0.02508231
42	0x3b738bf5	0.0037162278
43	0x3dc24888	0.094864905
44	0xbcb0864a	-0.021548409
45	0xbce94e9e	-0.02847987
46	0x3d74eeb6	0.059797965
47	0xbd19489a	-0.037422754
48	0xbdb3aeab	-0.0877355
49	0x3b539bc6	0.0032288893
50	0xbd274cc5	-0.040844698
51	0xbc97edc8	-0.018546
52	0xbdb93df1	-0.090450175
53	0x3db22995	0.086993374
54	0xbd3b4af2	-0.04572577
55	0x3c384fd4	0.011249501
56	0x3d745c70	0.059658468
57	0xbc8fcfd5	-0.017555157
58	0xbd31dc96	-0.043423258
59	0xbc17b7f1	-0.009260164
60	0x3d1b715d	0.03794991
61	0xbc1fdbe2	-0.009757014
62	0xbc9ec44d	-0.019380713
63	0x3cf0945f	0.029367624

sequential/tcn/residual_block_2/conv1D_1/BiasAdd/ReadVariableOp f4 [64]
0	0xbdda6028	-0.106628716
1	0xbdeced96	-0.115687534
2	0xbe326914	-0.17422897
3	0xbdf9066b	-0.12159427
4	0xbe47a997	-0.19498287
5	0xbd1c3726	-0.03813853
6	0xbdab3a74	-0.083607584
7	0xbda942d7	-0.08264702
8	0xbdce84a3	-0.10083892
9	0xbe9802c4	-0.2968961
10	0xbe1092e3	-0.14118533
11	0xbd986be2	-0.07442452
12	0xbd9658a2	-0.07341124
13	0xbdd4c7f8	-0.103897035
14	0xbe22d684	-0.15902144
15	0xbdd8aed2	-0.10580219
16	0xbe1b8437	-0.15187155
17	0xbe8aa247	-0.27076933
18	0xbdab4666	-0.08363037
19	0xbd7d6a2b	-0.061868828
20	0xbe09bbcd	-0.13450547
21	0xbe0ed6fc	-0.13949198
22	0xbe0139f8	-0.1261977
23	0xbdda0c0c	-0.10646829
24	0xbdc21f00	-0.09478569
25	0xbd742940	-0.05960965
26	0xbd2c83bb	-0.042117815
27	0xbdad4d7c	-0.084620446
28	0xbe05583b	-0.13021939
29	0xbdaf00cf	-0.08545076
30	0xbe40a96b	-0.18814628
31	0xbe094b67	-0.1340767
32	0xbe0725df	-0.1319804
33	0xbd2608c6	-0.04053571
34	0xbcf5728b	-0.029961845
35	0xbdbc8b4b	-0.092062555
36	0xbdbd2fcd	-0.09237633
37	0xbdbde369	-0.09271891
38	0xbe29ad45	-0.16570003
39	0xbe132442	-0.143693
40	0xbe23f13f	-0.16009997
41	0xbe5599dc	-0.20859474
42	0xbdc69a98	-0.09697455
43	0xbda15159	-0.07876844
44	0xbdc018de	-0.09379743
45	0xbe896096	-0.26831502
46	0xbd8ef025	-0.06979398
47	0xbd9d0317	-0.07666605
48	0xbe38fb37	-0.18064581
49	0xbe1b48c3	-0.15164475
50	0xbe14bc03	-0.14524846
51	0xbe46bb88	-0.19407475
52	0xbe29fb30	-0.16599727
53	0xbdd746ea	-0.10511573
54	0xbe1ab8ee	-0.15109608
55	0xbd13f685	-0.03612377
56	0xbe31d776	-0.17367348
57	0xbdfb4c9d	-0.12270472
58	0xbdd4618e	-0.103701696
59	0xbe4b7beb	-0.1987149
60	0xbd4929bd	-0.04911207
61	0xbde4f66c	-0.11179814
62	0xbd4b3b00	-0.049616814
63	0xbe0b906e	-0.13629314

sequential/tcn/residual_block_2/conv1D_0/BiasAdd/ReadVariableOp f4 [64]
0	0xbc110f2d	-0.008853716
1	0xbd48ecc3	-0.04905392
2	0xbdb886ce	-0.09010087
3	0xbdd8fd1f	-0.10595154
4	0xbd255d46	-0.040372156
5	0xbcf19bc4	-0.02949322
6	0xbb6458da	-0.0034842999
7	0xbd456a0a	-0.04819683
8	0xbdb249e5	-0.087055005
9	0xbd19582f	-0.037437614
10	0xbd6a2761	-0.05716646
11	0xbe020712	-0.1269801
12	0xbd53b62a	-0.051687397
13	0xbccb182d	-0.024791801
14	0xbcda2c5a	-0.026632477
15	0xbc36af0e	-0.011150135
16	0xbc830b4d	-0.0159966
17	0xbd7b7c6c	-0.061397955
18	0xbdff5a84	-0.12468436
19	0x3a49645e	0.00076824974
20	0x3d582c37	0.05277654
21	0x3bf7dd4c	0.0075642224
22	0xbde2a892	-0.110673085
23	0xbd2b8700	-0.041876793
24	0xbc64af6e	-0.013957841
25	0xbc539cfa	-0.012915844
26	0x3d1b20a6	0.037872933
27	0xbd832ceb	-0.06405052
28	0xbd04add0	-0.032392323
29	0x3dc3c045	0.09558157
30	0xbdb4e016	-0.088318035
31	0xbda59c81	-0.080864914
32	0xbd4be47d	-0.04977845
33	0xbcf4629e	-0.02983218
34	0xbc5b846d	-0.013398272
35	0x3ba1b8be	0.004935353
36	0xbdc13d5f	-0.09435534
37	0x3d3732f0	0.044726312
38	0xbd2ed578	-0.04268405
39	0xbd612328	-0.05496517
40	0xbd974826	-0.07386808
41	0x3c8f0e78	0.017462954
42	0x3b2f4e82	0.0026749675
43	0x3e566c30	0.20939708
44	0x3dd2a89e	0.102860674
45	0x3c3584dd	0.01107904
46	0xbd825c99	-0.06365318
47	0xbd7da213	-0.061922144
48	0xbc3ba52c	-0.011452954
49	0xbd43863b	-0.047735434
50	0xbe0ef263	-0.1395965
51	0xbcf05029	-0.029335098
52	0xbd178ce7	-0.03699961
53	0xbdc4b7aa	-0.09605344
54	0xbda3053d	-0.079599835
55	0x3c68d603	0.014211181
56	0x3d76fcb3	0.060299587
57	0x3d6051b1	0.054765407
58	0xbd95f579	-0.07322211
59	0x3ad1ce85	0.0016006982
60	0xbda7a4b7	-0.08185714
61	0xbd7bc651	-0.061468426
62	0x3d733837	0.059379783
63	0xbd6695e3	-0.056295287

sequential/tcn/residual_block_1/conv1D_1/BiasAdd/ReadVariableOp f4 [64]
0	0xbdc8d628	-0.09806472
1	0xbd76d7a4	-0.060264245
2	0xbdb04298	-0.08606452
3	0xbd5a638b	-0.053317588
4	0xbdf056ed	-0.1173533
5	0xbe4368b2	-0.19082907
6	0xbce65711	-0.028117688
7	0xbda54884	-0.08070472
8	0xbd8264ba	-0.06366868
9	0xbcc2dde5	-0.023787448
10	0xbe2098a2	-0.15683225
11	0xbdebd446	-0.11515097
12	0xbe10b670	-0.14132094
13	0xbe7c1105	-0.24615867
14	0xbe4a8503	-0.19777302
15	0xbd99c17b	-0.075076066
16	0xbdcec12e	-0.1009544
17	0xbdeac50b	-0.11463364
18	0xbe074c4e	-0.13212702
19	0xbdc948f7	-0.0982837
20	0xbe43b0ea	-0.19110456
21	0xbe5b75a2	-0.21431592
22	0xbe08c8c9	-0.13357843
23	0xbe6fceac	-0.23418683
24	0x3cd1dfbb	0.025619378
25	0xbe21571e	-0.15755889
26	0xbd31f478	-0.043446034
27	0xbd2b3269	-0.04179612
28	0xbd6d0e42	-0.057874925
29	0x3bfb5f8f	0.0076713036
30	0xbe2c4bf4	-0.16825849
31	0xbd54c4ff	-0.051945683
32	0xbdf98f57	-0.12185543
33	0x3d0cb121	0.03434861
34	0xbcc9e377	-0.024644597
35	0xbd29d8f7	-0.04146668
36	0xbd8c28ac	-0.06843695
37	0xbe23d03e	-0.15997407
38	0xbe6ddb80	-0.23228264
39	0xbe12c15c	-0.14331573
40	0xbcde568b	-0.027140876
41	0xbe118599	-0.1421112
42	0xbe1c8277	-0.15284143
43	0xbdf080ec	-0.1174334
44	0xbd4b5c12	-0.049648352
45	0xbe0facb7	-0.14030729
46	0xbe591a84	-0.21201521
47	0xbe2cfa83	-0.16892438
48	0xbd30766f	-0.043081697
49	0xbde9cb0a	-0.1141568
50	0xbd548572	-0.051885076
51	0xbe1f5e6b	-0.15563361
52	0xbe2990e9	-0.16559185
53	0xbdc9abed	-0.09847245
54	0xbdea0157	-0.11426037
55	0xbe8a57bc	-0.2702006
56	0xbe2fb714	-0.17159683
57	0xbe066fea	-0.1312863
58	0xbe0d805b	-0.13818495
59	0xbdcf8941	-0.10133601
60	0xbdb95272	-0.09048928
61	0xbdb79ea6	-0.08965807
62	0xbde23b86	-0.110465094
63	0xbe897463	-0.2684661

sequential/tcn/residual_block_1/conv1D_0/BiasAdd/ReadVariableOp f4 [64]
0	0xbe066907	-0.13126002
1	0xbdc69a99	-0.09697456
2	0xbc83a51e	-0.016069945
3	0x3d37466b	0.04474489
4	0x3d31bf0b	0.043395083
5	0x3d8fd85d	0.0702369
6	0xbdbfdb58	-0.093680084
7	0xbc661a19	-0.014044308
8	0xbe07ce3c	-0.13262266
9	0x3cbb85ec	0.022891007
10	0xbda54308	-0.08069426
11	0x3bf64cbc	0.0075164717
12	0xbd28697f	-0.041116234
13	0xbe10f11b	-0.14154474
14	0x3bb5c2a1	0.005546883
15	0x3d1f37b1	0.03887147
16	0xbd7348ec	-0.059395716
17	0xbcd107da	-0.02551644
18	0xbd9a0072	-0.07519616
19	0xbdd990f2	-0.10623349
20	0x3aae8eb7	0.0013317679
21	0xbd11e97d	-0.035623062
22	0x3c3d04a3	0.01153675
23	0x3a7bf7ce	0.0009611816
24	0x3aa5a8bf	0.0012638791
25	0xbd480bbf	-0.048839327
26	0xbc39f958	-0.011350952
27	0xbd8773b8	-0.066138685
28	0xbdae2fac	-0.085051864
29	0xbcddf9c2	-0.027096633
30	0xbdef91e2	-0.11697747
31	0xbdf8b1a6	-0.12143259
32	0x3c96f417	0.018426938
33	0xbc8b4ec7	-0.017005337
34	0xbdab9567	-0.083781056
35	0x3d0328fa	0.0320215
36	0x3afb9eb8	0.0019197082
37	0xbd729985	-0.05922844
38	0xbcedba8a	-0.029019613
39	0x3aabb8e2	0.0013101364
40	0xbca850ed	-0.0205464
41	0xbdab6cd7	-0.08370369
42	0xbd82a95a	-0.063799575
43	0xbd1df1d3	-0.0385607
44	0x3d0eefc7	0.03489664
45	0xbb329cf5	-0.0027254198
46	0xbd47022e	-0.048586063
47	0xbddbe144	-0.107363254
48	0xbe05ec55	-0.13078435
49	0xbb4c9793	-0.0031218275
50	0x3d8c9ec8	0.068662226
51	0x3d324a94	0.043528154
52	0xbd934640	-0.071911335
53	0xbcbb23d8	-0.02284424
54	0xbddc2a6b	-0.10750278
55	0xbda7356c	-0.08164486
56	0x3db24475	0.087044634
57	0x3c931567	0.017954541
58	0xbdfe203f	-0.12408494
59	0xbd55d28d	-0.05220275
60	0xbd3410df	-0.043961402
61	0xbd9872a8	-0.07443744
62	0xbd94acf1	-0.072595485
63	0xbc6c7e0b	-0.014434348

sequential/tcn/residual_block_0/matching_conv1D/BiasAdd/ReadVariableOp f4 [64]
0	0x3cd9dc2d	0.026594246
1	0xbe261fd3	-0.16223077
2	0xbdf10b5f	-0.11769747
3	0x3dab167b	0.08353897
4	0xbd92ac0b	-0.07161721
5	0xbdb2f704	-0.08738521
6	0xbd9ab221	-0.07553507
7	0xbd6252ac	-0.055254623
8	0x3b11b421	0.002223261
9	0xbe2c16d7	-0.16805588
10	0xbd0168ca	-0.031594075
11	0xbcf5faad	-0.030026758
12	0x3e0b9bf0	0.13633704
13	0xbde6e2a7	-0.11273699
14	0x3d51583e	0.051109545
15	0xbe0fcb8f	-0.14042495
16	0xbe30f2a9	-0.17280068
17	0xbe18d00e	-0.14923117
18	0xbccaca7f	-0.02475476
19	0xbe086a3a	-0.13321772
20	0x3cacbf75	0.021087388
21	0xbc3c41cb	-0.011490296
22	0x3d28d3cf	0.04121762
23	0xbdf2fde8	-0.11864835
24	0xbc282d53	-0.010264712
25	0x3be0a969	0.0068561328
26	0xbe2dbc27	-0.16966306
27	0xbb5d8c1d	-0.0033805438
28	0xbcb62b52	-0.022237454
29	0xbb6b3882	-0.0035891836
30	0xbd3de592	-0.046361513
31	0xbdfd34ae	-0.123635635
32	0xbdb63903	-0.08897593
33	0x3ce6330d	0.028100515
34	0xbd1b635b	-0.03793655
35	0xbd1330b5	-0.035935123
36	0xbca738ad	-0.020412767
37	0xbe36306c	-0.17791909
38	0xbdd7e4df	-0.105417006
39	0x3da6440a	0.08118446
40	0xbdec3150	-0.11532843
41	0xbdda3781	-0.10655118
42	0xbcde339c	-0.027124219
43	0xbcbc92a1	-0.023019137
44	0xbdec4c9c	-0.115380496
45	0x3c9e5d0f	0.019331483
46	0xbdba6d5a	-0.091028884
47	0x3d5a05eb	0.0532283
48	0xbddacc1e	-0.106834635
49	0xba3041e2	-0.00067236845
50	0x3ca50d3a	0.020147908
51	0xbd5d7c49	-0.054073606
52	0xbceddcdb	-0.029035976
53	0x3c18a15f	0.009315818
54	0xbc1992cc	-0.009373378
55	0xbd38c5d5	-0.045110542
56	0xbd91e26d	-0.071232654
57	0xbb6b8b6a	-0.0035941252
58	0xba238b69	-0.000623873
59	0xbdc1ae5d	-0.09457085
60	0xbb1a60a5	-0.002355614
61	0xbe9471e6	-0.28993148
62	0xbca26776	-0.019824725
63	0xbb55621a	-0.0032559694

sequential/tcn/residual_block_0/conv1D_1/BiasAdd/ReadVariableOp f4 [64]
0	0xbd80d300	-0.06290245
1	0xbe18a100	-0.14905167
2	0xbd07e7bd	-0.033179987
3	0x3ca48511	0.020082982
4	0xbdb8ebb9	-0.090293355
5	0x3d12df07	0.035857227
6	0xbdb8928e	-0.09012328
7	0xbdf99d72	-0.121882334
8	0xb9f238ba	-0.00046200101
9	0xbcdcc038	-0.026947126
10	0xbcbbba9f	-0.022916136
11	0xbda18fdf	-0.07888769
12	0xbda8859b	-0.08228608
13	0xbe1bf41a	-0.15229836
14	0xbdad7817	-0.08470171
15	0xbd966c2f	-0.07344853
16	0xbda33644	-0.07969335
17	0xbd465881	-0.048424248
18	0xbdc28737	-0.094984464
19	0xbe5db9f3	-0.21652965
20	0xbdd26d27	-0.102747254
21	0xbd17b61e	-0.037038915
22	0xbdcdb398	-0.100440204
23	0xbdc89031	-0.09793127
24	0xbd465bfd	-0.04842757
25	0xbe026877	-0.12735163
26	0xbd2c36a1	-0.042044286
27	0xbdca83b9	-0.09888405
28	0xbd0d32df	-0.034472343
29	0xbbb8e7f2	-0.0056428844
30	0x3b1848cd	0.0023236752
31	0xbdde0504	-0.108408004
32	0xbd7ffcea	-0.062497057
33	0xbd83e785	-0.06440643
34	0xbc605670	-0.013692483
35	0xbb8af85a	-0.0042410316
36	0xbd0f4166	-0.03497448
37	0xbdba9101	-0.091096886
38	0xbe166437	-0.14686666
39	0x3b4cef8c	0.003127071
40	0xbd6c5d54	-0.057706192
41	0xbd4fdbcd	-0.050746728
42	0xbd7db66e	-0.061941557
43	0xbd880bfc	-0.06642911
44	0xbe3a414b	-0.1818897
45	0xbcc41765	-0.023936937
46	0xbc0a441a	-0.008439088
47	0xbccef7d3	-0.025264656
48	0xbd868673	-0.06568613
49	0xbb4d482b	-0.0031323533
50	0xbc9cc7f9	-0.019138323
51	0xbd8b32a7	-0.067967705
52	0xbd348567	-0.044072535
53	0xbe425ea0	-0.18981409
54	0xbe03e3c6	-0.12879857
55	0xbd89afc7	-0.0672298
56	0xbda9993f	-0.082811825
57	0xbd0dc411	-0.03461081
58	0xbdc829f7	-0.09773629
59	0xbddda658	-0.10822743
60	0x3b94fd3e	0.0045467904
61	0xbda06fa3	-0.07833793
62	0x3c280c56	0.010256847
63	0xbc8a046c	-0.016847812

sequential/tcn/residual_block_0/conv1D_0/BiasAdd/ReadVariableOp f4 [64]
0	0x3d3270b9	0.043564532
1	0x3d04f459	0.03245959
2	0x3ce237ce	0.0276145
3	0xbcf351c0	-0.029702067
4	0x3ca0bce1	0.019621314
5	0xbd61b7d1	-0.05510694
6	0x3d101c9a	0.035183527
7	0xbc12dc6c	-0.0089636855
8	0x3d3b4773	0.045722436
9	0xbd19c8d2	-0.037545033
10	0x3c19e35f	0.009392588
11	0x3c6c7456	0.0144320335
12	0x3d2d10b8	0.042252272
13	0xbc956f2b	-0.018241486
14	0xbc9d3116	-0.019188445
15	0xbdcffb5c	-0.10155365
16	0xbda2261a	-0.079174235
17	0xbcf136e2	-0.029445115
18	0x3cb7eeb0	0.022452682
19	0xbdac733e	-0.08420418
20	0xbdb7c533	-0.0897316
21	0x3cb4de87	0.022078766
22	0xbd1d4e11	-0.038404528
23	0xbc95eada	-0.018300463
24	0x3d1ef83d	0.038810957
25	0xbd2b26ac	-0.041784927
26	0x3ca8ba26	0.020596575
27	0x3cbfedbf	0.023428796
28	0x3cdd4a20	0.027012885
29	0x3d3bbbbf	0.045833346
30	0xbd98c4c6	-0.074594066
31	0x3c550bba	0.013003284
32	0x3d236f5d	0.039901126
33	0xbb927997	-0.004470061
34	0x3d8d13c9	0.06888539
35	0xbd203b09	-0.0391188
36	0xbd2ead3d	-0.04264568
37	0x3a236aec	0.0006233889
38	0x3d1a8951	0.03772861
39	0x3d064404	0.03277971
40	0x3b850e9c	0.0040605795
41	0x39332f4b	0.00017088388
42	0xbd74fd91	-0.059812132
43	0x3ceca0d5	0.028885284
44	0x3c895d67	0.01676817
45	0xbd5ffe9d	-0.054686178
46	0x3cf82658	0.030291721
47	0xbdaf2a01	-0.085529335
48	0xbd3e0ff2	-0.046401925
49	0xbd9195b4	-0.07108632
50	0xbd2b2d7b	-0.04179142
51	0xbd0732d5	-0.03300746
52	0xbb663f80	-0.0035133064
53	0x3dc56431	0.096382506
54	0x3d3d980c	0.04628758
55	0xbdfbaed6	-0.12289207
56	0xbd87ea87	-0.066365294
57	0x3d88ce1e	0.06679939
58	0xbd23afc5	-0.03996255
59	0xbcbf7867	-0.023372842
60	0xbd56cc35	-0.05244084
61	0xbd39fee9	-0.045409117
62	0x3d3d6f22	0.046248563
63	0x3dd972c8	0.10617596

sequential/output/MatMul f4 [1, 64]
0	0xbe47aacc	-0.19498748
1	0xbdca4521	-0.098764665
2	0xbd679bb4	-0.056544974
3	0xbdabadd3	-0.08382764
4	0x3ea49eb5	0.32152334
5	0x3c67f036	0.014156392
6	0x3d075e59	0.03304896
7	0x3d7fea4f	0.062479313
8	0xbd4de160	-0.050263762
9	0x3d4551c6	0.04817369
10	0x3e0227b7	0.12710463
11	0xbe350122	-0.17676213
12	0xbe6b21ac	-0.22962064
13	0x3caaf2df	0.020867763
14	0x3e73476e	0.23757717
15	0x3b576563	0.0032866828
16	0xbd562103	-0.052277576
17	0x3e6d3dde	0.23168132
18	0xbc2bc3f6	-0.010483732
19	0xbd5a7287	-0.053331878
20	0x3c000e95	0.007815977
21	0x3e211731	0.15731503
22	0x3e87b961	0.2650862
23	0x3b8f8e34	0.0043809656
24	0xbeb39290	-0.35072756
25	0x3bd8a4ae	0.006611428
26	0x3dcfa9b8	0.10139793
27	0x3cc7f706	0.024409782
28	0x3eac5355	0.33657327
29	0xbd0c4d78	-0.034253567
30	0x3cd246e8	0.025668576
31	0x3d87036d	0.0659245
32	0x3d325b25	0.043543953
33	0xbeb6625a	-0.3562191
34	0x3d019290	0.031633914
35	0x3d232a6c	0.03983538
36	0x3dd5aa94	0.10432926
37	0xbe631874	-0.22177297
38	0x3d1cdb12	0.03829486
39	0x3e6bff3b	0.23046581
40	0xbb45233f	-0.0030080823
41	0x3e9a46db	0.30132183
42	0xbd034ae1	-0.032053832
43	0xbdfcdf41	-0.1234727
44	0x3a841ed8	0.0010079993
45	0xbb6acff4	-0.0035829516
46	0x3ab9e29c	0.0014181915
47	0xbd437d42	-0.047726877
48	0xbc1244ca	-0.008927533
49	0x3cad4ea3	0.021155661
50	0x3e1833ba	0.14863482
51	0x3c5fadda	0.013652289
52	0x3d005138	0.031327456
53	0x3d8e4fc1	0.069488056
54	0x3e249383	0.16071896
55	0xbd82d44a	-0.06388147
56	0xbc56cbf8	-0.013110153
57	0x3ea61c82	0.32443625
58	0xbe71c16b	-0.2360894
59	0x3ae7586e	0.0017650255
60	0x3e1e2f07	0.15447627
61	0xbca0b709	-0.019618528
62	0x3d2e99cf	0.042627152
63	0xbe9d742a	-0.3075269

sequential/tcn/residual_block_6/conv1D_1/Conv1D f4 [64]
0	0x00000000	0.0
1	0x00000000	0.0
2	0x00000000	0.0
3	0x00000000	0.0
4	0x00000000	0.0
5	0x00000000	0.0
6	0x00000000	0.0
7	0x00000000	0.0
8	0x00000000	0.0
9	0x00000000	0.0
10	0x00000000	0.0
11	0x00000000	0.0
12	0x00000000	0.0
13	0x00000000	0.0
14	0x00000000	0.0
15	0x00000000	0.0
16	0x00000000	0.0
17	0x00000000	0.0
18	0x00000000	0.0
19	0x00000000	0.0
20	0x00000000	0.0
21	0x00000000	0.0
22	0x00000000	0.0
23	0x00000000	0.0
24	0x00000000	0.0
25	0x00000000	0.0
26	0x00000000	0.0
27	0x00000000	0.0
28	0x00000000	0.0
29	0x00000000	0.0
30	0x00000000	0.0
31	0x00000000	0.0
32	0x00000000	0.0
33	0x00000000	0.0
34	0x00000000	0.0
35	0x00000000	0.0
36	0x00000000	0.0
37	0x00000000	0.0
38	0x00000000	0.0
39	0x00000000	0.0
40	0x00000000	0.0
41	0x00000000	0.0
42	0x00000000	0.0
43	0x00000000	0.0
44	0x00000000	0.0
45	0x00000000	0.0
46	0x00000000	0.0
47	0x00000000	0.0
48	0x00000000	0.0
49	0x00000000	0.0
50	0x00000000	0.0
51	0x00000000	0.0
52	0x00000000	0.0
53	0x00000000	0.0
54	0x00000000	0.0
55	0x00000000	0.0
56	0x00000000	0.0
57	0x00000000	0.0
58	0x00000000	0.0
59	0x00000000	0.0
60	0x00000000	0.0
61	0x00000000	0.0
62	0x00000000	0.0
63	0x00000000	0.0

sequential/tcn/residual_block_0/conv1D_0/Conv1D f4 [64, 1, 3, 18]
0	0xbc6a5aae	-0.014303846
1	0x3e2c36cb	0.16817777
2	0xbc51c45e	-0.012803165
3	0xbc3706ec	-0.011171084
4	0xbe416432	-0.18885878
5	0x3e78e895	0.24307473
6	0x3cb3c2e5	0.021943519
7	0xbe3a1d1a	-0.18175164
8	0x3e3b1364	0.18269116
9	0x3da44c4c	0.08022365
10	0x3e807642	0.25090224
11	0xbcd1d23d	-0.025612945
12	0xbe89ce9a	-0.26915437
13	0x3e85a71a	0.2610405
14	0x3b2aa713	0.0026039525
15	0x3d50e461	0.05099905
16	0xbc4573a9	-0.012051501
17	0x3ebd8662	0.37016588
18	0x3e90c2b3	0.28273544
19	0xbe90feb2	-0.28319317
20	0x3c8286a4	0.015933342
21	0x3de5f6b8	0.112286985
22	0x3c367a52	0.011137562
23	0x3e30f269	0.17279972
24	0xbde07032	-0.109588996
25	0xbd475e24	-0.048673764
26	0x3edbeea9	0.4295552
27	0xbe22f33d	-0.159131
28	0x3df2be94	0.11852756
29	0xbec47e83	-0.3837777
30	0xbe19151d	-0.1494946
31	0xbe65b107	-0.22430812
32	0xbde59379	-0.11209769
33	0xbe21660f	-0.15761589
34	0xbcefc870	-0.02927038
35	0x3d58cc3c	0.052929148
36	0x3e5bf9a5	0.2148195
37	0xbdf104c4	-0.11768487
38	0x3e95bd8a	0.2924617
39	0x3c4c6ce0	0.01247713
40	0xbf091a46	-0.53555715
41	0x3ecef1e1	0.40418914
42	0xbf10e211	-0.5659495
43	0x3e6e1fa1	0.23254253
44	0xbe1dd3bc	-0.15412802
45	0x3df2eac5	0.11861185
46	0xbe53b14a	-0.20673099
47	0x3da32dc3	0.07967713
48	0x3ee0a1b7	0.4387338
49	0xbd7081a1	-0.058717374
50	0xbd4f0a59	-0.050546978
51	0x3d6909d2	0.05689413
52	0x3ea7f9d8	0.32807803
53	0xbe74d665	-0.2390991
54	0xbe2ebecc	-0.1706497
55	0xbebce343	-0.36892137
56	0x3e1b7e04	0.1518479
57	0xbe0883c4	-0.13331515
58	0x3e4f8102	0.20264056
59	0x3e1614c9	0.14656366
60	0x3eb47013	0.35241756
61	0xbe58da48	-0.21177018
62	0x3e99b864	0.3002349
63	0xbd12414f	-0.035706814
64	0xbe791687	-0.24325
65	0xbe8f4c70	-0.27988005
66	0x3e5fde73	0.21862201
67	0x3e70e12b	0.23523395
68	0x3ebd8a94	0.3701979
69	0x3eba891e	0.36432737
70	0x3db1c38a	0.08679874
71	0xbdd3346f	-0.10312735
72	0x3e817f76	0.25292557
73	0xbde4acdc	-0.11165783
74	0x3ea9d15b	0.33167538
75	0xbe2fa4d0	-0.17152715
76	0x3dd47a19	0.10374851
77	0x3e2e0db7	0.1699742
78	0x3dffa2a8	0.12482196
79	0x3e15d436	0.14631733
80	0xbdfe84d7	-0.12427681
81	0xbe13969d	-0.14412923
82	0x3ebc30c8	0.36755967
83	0x3aaea4e6	0.001332429
84	0xbe927516	-0.28604954
85	0x3d3f9bb9	0.046779368
86	0x3d84091a	0.064470485
87	0x3edd6595	0.43241563
88	0x3e78e3d7	0.24305664
89	0x3e2444f3	0.16041927
90	0x3cab48bd	0.020908708
91	0x3e0bca64	0.13651425
92	0xbe80ac74	-0.2513157
93	0xbe5a0c92	-0.21293858
94	0x3c429037	0.011875204
95	0xbdea10c2	-0.114289775
96	0xbd7df2e9	-0.061999235
97	0xbe7a05e8	-0.24416316
98	0xbf2795f5	-0.6546319
99	0x3ec5513c	0.3853854
100	0xbde79742	-0.11308147
101	0xbf26fc95	-0.6522916
102	0x3cfc49c9	0.030796902
103	0x3e1a9050	0.15094113
104	0xbde132bf	-0.10996007
105	0x3d017d1e	0.03161346
106	0xbdb4c8d0	-0.088273644
107	0x3f1e9f8c	0.619622
108	0x3e1c75a2	0.15279248
109	0xbeaac11c	-0.33350456
110	0x3ea30336	0.31838387
111	0xbdba72e8	-0.09103948
112	0xbdbd1c52	-0.09233917
113	0x3e1d02a2	0.15333036
114	0xbce42c8a	-0.02785327
115	0x3b8f52f9	0.004373905
116	0xbca25342	-0.019815091
117	0xbdd99dd4	-0.106258065
118	0xbd35d4a4	-0.044392243
119	0xbe9991f4	-0.29994166
120	0x3e8ad1dd	0.27113238
121	0x3e9adbca	0.3024581
122	0xbeafce18	-0.34336925
123	0x3e44d7a6	0.19222888
124	0x3e96e583	0.2947198
125	0xbe466910	-0.19376016
126	0xbd6c08d7	-0.057625618
127	0x3b3d6f03	0.002890528
128	0xbe8bbc31	-0.27292016
129	0xbe198ecd	-0.1499588
130	0x3ec4ea5b	0.3846005
131	0x3e7b7d35	0.24559481
132	0x3e5a80b0	0.21338153
133	0xbe73d52c	-0.23811787
134	0x3e1ffcd0	0.15623784
135	0x3eaf739f	0.342679
136	0xbd205474	-0.03914304
137	0xbe07ddba	-0.13268176
138	0x3baa4a37	0.0051968354
139	0x3df2ec7a	0.118615106
140	0x3de44137	0.11145251
141	0xbe84d256	-0.25941724
142	0x3e2f3623	0.17110495
143	0xbaad3045	-0.0013213238
144	0xbc371358	-0.0111740455
145	0x3e0efb11	0.13962962
146	0x3dad2baa	0.08455594
147	0xbee7cf3d	-0.45275298
148	0xbbb56c0e	-0.0055365628
149	0x3e107344	0.1410647
150	0xbd930eb7	-0.07180541
151	0x3df94efc	0.12173268
152	0xbe63fb1f	-0.22263764
153	0x3eaa5400	0.33267212
154	0x3e5ef69b	0.2177376
155	0xbf038ef9	-0.51390034
156	0xbeb3c805	-0.3511354
157	0x3eadd88d	0.33954278
158	0x3dca9309	0.09891326
159	0xbea3d159	-0.31995657
160	0x3e8edab9	0.27901247
161	0xbcc47223	-0.023980206
162	0x3eb31a6a	0.3498109
163	0x3ece8140	0.40332985
164	0x3e5d7022	0.21624807
165	0xbe0926ca	-0.13393703
166	0x3e5087ea	0.20364347
167	0x3e2404cd	0.16017456
168	0x3e8c827f	0.2744331
169	0xbe194242	-0.14966682
170	0xbd8b4330	-0.067999244
171	0x3e0322ea	0.12806287
172	0x3eab2e77	0.33433887
173	0xbd89b303	-0.06723597
174	0x3e609352	0.21931198
175	0xbdc22d88	-0.09481341
176	0x3ddb960f	0.10721981
177	0x3e6d71bc	0.23187917
178	0xbdab95f1	-0.083782084
179	0xbe3bd232	-0.18341902
180	0xbeb99f5a	-0.36254388
181	0x3d956343	0.07294323
182	0x3e956ab3	0.29182968
183	0xbe3026e3	-0.17202334
184	0x3e4d33e6	0.20039329
185	0xbe7be0b9	-0.24597444
186	0x3dbebad2	0.09312977
187	0xbe51c5c4	-0.20485598
188	0x3cc4d0ee	0.024025407
189	0x3d298ae2	0.041392215
190	0x3eb52078	0.35376334
191	0xbea47b0b	-0.32125124
192	0xbcb6e09e	-0.022323903
193	0xbe6bedfa	-0.2304
194	0x3df75a9e	0.12077831
195	0x3daf59d7	0.085620575
196	0xbe68b558	-0.22725427
197	0xbce192b6	-0.027535778
198	0xbe6c5db7	-0.23082624
199	0x3df1c1da	0.118045524
200	0xbdbbed85	-0.09176163
201	0xbe1b8901	-0.15188982
202	0x3e4d6083	0.20056348
203	0x3dd44f79	0.10366721
204	0x3d8379d5	0.06419722
205	0xbe80b47f	-0.25137708
206	0xbdb590fa	-0.08865543
207	0xbe89881e	-0.26861662
208	0x3e84c65c	0.25932586
209	0xbf15aa8e	-0.5846337
210	0xbeb3779a	-0.35052186
211	0xbe62e078	-0.2215594
212	0xbe77cac1	-0.24198438
213	0x3e7067be	0.23477075
214	0x3e040a31	0.12894513
215	0xbc1f34af	-0.009717151
216	0xbd765e89	-0.06014875
217	0xbea5ae0d	-0.32359353
218	0x3d29308c	0.041306064
219	0xbc9d6492	-0.019212995
220	0x3cb973f7	0.022638304
221	0x3e3dcda7	0.18535481
222	0xbe44c2c6	-0.19214925
223	0x3d902f98	0.07040328
224	0xbe87fab6	-0.26558465
225	0x3da0fa7d	0.07860277
226	0xbd8ee7c4	-0.069777995
227	0xbe44e9f5	-0.19229873
228	0x3e9ebd93	0.3100401
229	0x3d70b4f9	0.05876634
230	0x3e9ea52f	0.309854
231	0xbdc3e574	-0.09565249
232	0x3ecb86ff	0.3975143
233	0xbdfa7aaa	-0.122304276
234	0x3e3a728f	0.18207763
235	0xbecb7cab	-0.39743552
236	0x3ed6815f	0.41895577
237	0xbe74ba70	-0.23899245
238	0xbdebde69	-0.11517031
239	0xbea32860	-0.3186674
240	0xbe34b2f9	-0.17646398
241	0xbe371405	-0.1787873
242	0xbd57b835	-0.052665908
243	0x3db62ca6	0.08895235
244	0xbd9e6ee7	-0.07735997
245	0xbeadd837	-0.3395402
246	0x3d5e6646	0.054296754
247	0xbd86bd7c	-0.0657911
248	0x3e07575e	0.13216922
249	0xbe8f6200	-0.28004456
250	0xbe03d7d4	-0.128753
251	0x3e3115f9	0.17293538
252	0x3e9ef1ab	0.31043753
253	0x3d295bba	0.041347243
254	0x3da4bcb0	0.08043802
255	0x3ee0ce1b	0.43907246

sequential/tcn/residual_block_0/conv1D_1/Conv1D f4 [64, 1, 3, 64]
0	0xbd0aec95	-0.03391703
1	0xbe470730	-0.19436336
2	0x3e6a9603	0.22908787
3	0xbca8b794	-0.02059535
4	0x3e070998	0.13187253
5	0xbe1b4e32	-0.15166548
6	0xbccac162	-0.024750415
7	0xbdcba7dd	-0.09944127
8	0x3ddfc6e7	0.109266095
9	0x3c4c63ff	0.012475013
10	0xbca8e9ef	-0.02061936
11	0x3e6600a4	0.22461182
12	0xbd9dd638	-0.077068746
13	0x3e2e1729	0.17001022
14	0x3ddaea5e	0.10689233
15	0x3e46a5bb	0.19399159
16	0xbdb24a9f	-0.08705639
17	0xbe221dd5	-0.15831693
18	0x3e3d283a	0.18472376
19	0x3da5edd1	0.081020005
20	0xbc65305d	-0.0139885815
21	0xbda7a8c7	-0.081864886
22	0xbdd43184	-0.10361007
23	0xbe329eb5	-0.17443354
24	0xbca9f802	-0.020748142
25	0x3e30b605	0.17256935
26	0x3daa58c6	0.083177134
27	0xbe2613a1	-0.16218425
28	0x3d8b276e	0.0679463
29	0xbca7ce7d	-0.020484203
30	0x3e56a129	0.20959915
31	0x3d36f02a	0.044662632
32	0xbe03ef21	-0.12884189
33	0x3c361c60	0.011115164
34	0xbd841e8d	-0.064511396
35	0xbddafcef	-0.106927745
36	0x3d785cca	0.060635366
37	0x3da9796d	0.08275113
38	0xbd316e64	-0.043318167
39	0xbd9c09d0	-0.07619059
40	0x3a63319c	0.0008666755
41	0x3e4fd61a	0.20296517
42	0x3e4b1339	0.19831552
43	0x3db5ef7c	0.08883569
44	0xbaa05f8c	-0.0012235506
45	0x3b743a17	0.003726607
46	0x3bf9d0ad	0.007623753
47	0xbdbd42bc	-0.09241244
48	0xbb74c3e9	-0.0037348217
49	0xbdb4d323	-0.08829334
50	0xbd083385	-0.033252258
51	0xbc447a6d	-0.011992079
52	0x3e0216a8	0.12703955
53	0xbdb262d8	-0.08710259
54	0xbe3c8839	-0.1841134
55	0xbd19474b	-0.037421506
56	0x3e447347	0.191846
57	0x3d591621	0.05299962
58	0x3e15145e	0.1455855
59	0xbdb198dd	-0.086717345
60	0x3c8ffd65	0.017576883
61	0xbdce8293	-0.10083499
62	0x3db9061b	0.09034368
63	0x3df2a96d	0.11848722
64	0xbe4bbd2e	-0.19896385
65	0x3d36323c	0.0444815
66	0xbd93ed4f	-0.072229974
67	0xbd637afc	-0.05553721
68	0x3ccaa1aa	0.02473529
69	0x3d6673e8	0.05626288
70	0x3d821b12	0.063528195
71	0xbe2ffbaa	-0.17185846
72	0xbdf9d344	-0.12198499
73	0xbdabbc89	-0.083855696
74	0xbdad299c	-0.08455202
75	0xbe23fc82	-0.16014293
76	0x3df8ca13	0.121479176
77	0xbdcc05c8	-0.0996204
78	0xbceb8411	-0.028749498
79	0xbe16b56a	-0.14717641
80	0x3d4c69f0	0.049905717
81	0xbdf233c0	-0.11826277
82	0x3dac22e2	0.08405091
83	0xbcba1815	-0.022716561
84	0xbd9b6a02	-0.07588579
85	0x3d924856	0.07142703
86	0xbd579337	-0.05263063
87	0xbdedad48	-0.116053164
88	0xbd077dcb	-0.03307895
89	0x3dc73e8d	0.097287275
90	0x3e4c7c21	0.19969226
91	0x3dadb27c	0.08481309
92	0xbbd15738	-0.006388571
93	0xbe0ba441	-0.13636877
94	0x3d95a222	0.07306315
95	0xbdbbc664	-0.091686994
96	0x3c0f6413	0.008751887
97	0xbe175a86	-0.14780626
98	0xbc90d2f2	-0.017678712
99	0x3dba6b85	0.09102539
100	0xbdc0bbf0	-0.09410846
101	0xbd85de6b	-0.065365635
102	0x3c92e52d	0.017931545
103	0x3d9b3ade	0.075795874
104	0x3d62832e	0.055300884
105	0x3dc7678b	0.09736546
106	0x3e3c44a5	0.18385561
107	0x3cb3b6c6	0.02193774
108	0x3e44bd74	0.19212896
109	0x3b918cf4	0.0044418518
110	0xbe3b42a3	-0.18287139
111	0xbd56113b	-0.052262526
112	0xbcc6970f	-0.024241952
113	0x3d8d139d	0.068885066
114	0xbe3fb051	-0.18719603
115	0x3dcd6157	0.10028332
116	0xbe2eb285	-0.17060287
117	0xbce05f3a	-0.027389158
118	0xbe24e4b3	-0.16102867
119	0x3c353af0	0.011061415
120	0x3d36fe21	0.04467595
121	0x3e12905b	0.1431288
122	0x3d68f637	0.056875434
123	0x3db79b67	0.089651875
124	0x3a10e37d	0.00055270625
125	0x3d6ee56c	0.058324262
126	0xbd4038ac	-0.046929047
127	0xbcd7a279	-0.02632259
128	0x3e192491	0.14955355
129	0x3d8d66a4	0.06904343
130	0x3e10222c	0.14075536
131	0xbe848ec3	-0.2589017
132	0xbdae99ee	-0.085254535
133	0x3c663e05	0.014052873
134	0x3e1b1467	0.15144502
135	0x3da2b8f3	0.079454325
136	0xbdb93238	-0.090427816
137	0xbf096e3d	-0.53683835
138	0x3e2486b9	0.16067018
139	0x3e6019e8	0.21884882
140	0xbb4b54e8	-0.003102595
141	0xbe4f8b2c	-0.20267934
142	0xbdf8d5e0	-0.121501684
143	0xbe816069	-0.25268868
144	0x3e7b645d	0.24550004
145	0x3e6b1cd0	0.2296021
146	0xbd95133f	-0.072790615
147	0x3ea6f398	0.32607722
148	0x3dd1b765	0.10240058
149	0x3caea475	0.021318654
150	0x3d01aa3d	0.031656493
151	0xbdc6bfda	-0.097045615
152	0x3e78b268	0.24286807
153	0xbc331742	-0.010930838
154	0xbd8a7645	-0.067608394
155	0x3dd5028d	0.10400877
156	0xbf0300a8	-0.51172876
157	0x3ecfe731	0.40606073
158	0xbe263dd3	-0.16234522
159	0xbd41c770	-0.04730934
160	0xbd4d0835	-0.050056655
161	0xbc2278b6	-0.009916475
162	0xbcf720cc	-0.030167006
163	0xbc9eff95	-0.01940898
164	0x3d1cff37	0.03832933
165	0xbe8044b9	-0.2505243
166	0xbc27f723	-0.010251793
167	0x3e3d8d95	0.1851104
168	0x3de66c88	0.112511694
169	0x3e9395b4	0.28825152
170	0xbe792e05	-0.24333961
171	0x3c7b27b3	0.015329289
172	0x3e22cf47	0.15899383
173	0x3d77d659	0.060507152
174	0x3e189826	0.1490179
175	0x3d548dac	0.05189292
176	0xbe606df7	-0.21916948
177	0x3eac19f1	0.33613542
178	0xbd300632	-0.04297466
179	0x3e9012da	0.28139383
180	0x3e467d16	0.19383654
181	0x3df2d718	0.11857432
182	0xbd7462a4	-0.059664384
183	0xbca7c7e3	-0.020481056
184	0xbeb13109	-0.34607723
185	0x3e172e26	0.14763698
186	0x3d7e38e2	0.062065966
187	0x3d0ecad2	0.034861393
188	0xbe5a93e3	-0.21345477
189	0x3de75554	0.11295572
190	0x3d0b7c6e	0.034054212
191	0xbbaf45f7	-0.0053489166
192	0xbda06b02	-0.0783291
193	0x3da3883a	0.079849675
194	0xbdbcbea6	-0.09216051
195	0x3d2cc06f	0.042175706
196	0xbd0d8eed	-0.034560133
197	0xbe081fe7	-0.1329342
198	0x3d0358f2	0.032067247
199	0x3de4f645	0.11179785
200	0xbc2293f8	-0.009922974
201	0x3d969fa7	0.0735467
202	0xbe65c753	-0.22439317
203	0xbcfa9cb3	-0.030592298
204	0xbc3d9190	-0.011570349
205	0xbdc8671e	-0.09785293
206	0xbd223291	-0.039599005
207	0xbe3c3ad0	-0.1838181
208	0xbd94f7f1	-0.072738536
209	0x3d6d9b51	0.05800945
210	0x3b5f50bf	0.0034075228
211	0x3e687f5e	0.22704837
212	0xbe4a9276	-0.19782433
213	0x3d4514ff	0.048115727
214	0xbd657c1c	-0.056026563
215	0x3e69c962	0.22830728
216	0xbe178705	-0.147976
217	0x3d30cec4	0.043165937
218	0x3d697529	0.0569965
219	0xbd3a7ac0	-0.04552722
220	0x3e00e75c	0.12588257
221	0x3e2157e2	0.15756181
222	0x3da723c1	0.081611164
223	0x3e15c468	0.14625704
224	0xbdb67364	-0.08908728
225	0x3e39afb6	0.18133435
226	0x3da67578	0.08127874
227	0x3de3f581	0.111308105
228	0x3ccd002b	0.025024494
229	0x3e007c79	0.12547483
230	0xbbe2c47a	-0.0069203945
231	0xbde3589d	-0.11100886
232	0x3d2712f5	0.040789563
233	0x3d806cab	0.06270727
234	0xbe5c19a3	-0.21494155
235	0x3d9a0c4e	0.07521878
236	0xbc9c90ca	-0.01911201
237	0xbe34c47a	-0.17653075
238	0xbd488a2e	-0.048959903
239	0xbd1581f5	-0.03650089
240	0xbdf55164	-0.11978415
241	0xbdf839f3	-0.12120428
242	0xbced4d3a	-0.028967489
243	0x3da036aa	0.07822926
244	0x3e0c0eb2	0.13677481
245	0xbcd37189	-0.025810974
246	0xbdacbff7	-0.08435052
247	0x3b35802d	0.0027694807
248	0xbe1d3bd3	-0.15354852
249	0xbd623d98	-0.05523452
250	0x3e302158	0.1720022
251	0xbe2f5da7	-0.1712557
252	0xbe282248	-0.16419327
253	0x3ddbdaf8	0.10735124
254	0x3d475449	0.048664365
255	0x3ad7b100	0.0016455948

sequential/tcn/residual_block_0/matching_conv1D/Conv1D f4 [64, 1, 1, 18]
0	0x3c958c63	0.018255418
1	0xbf3bcf94	-0.73363614
2	0x3e1a04be	0.15040872
3	0x3ea0b3f7	0.31387302
4	0xbe2c87da	-0.16848698
5	0xbe954e5c	-0.29161346
6	0x3e2b260d	0.16713734
7	0xbd1c98c3	-0.038231622
8	0xbf840611	-1.0314351
9	0x3ce86a52	0.02837101
10	0xbd459035	-0.04823323
11	0x3ef3cd0a	0.4761737
12	0x3f539028	0.8264184
13	0xbf18de42	-0.5971414
14	0x3dcd34ae	0.100198135
15	0xbf0dc003	-0.5537111
16	0xbeee69cb	-0.4656509
17	0xbf22bd3b	-0.6356999
18	0x3f1c032b	0.60942334
19	0xbe7ca6e8	-0.24673045
20	0xbd7a3847	-0.061088827
21	0xbdd951c4	-0.10611299
22	0x3f4e10ae	0.804942
23	0xbea8c7d7	-0.32964966
24	0x3e741654	0.23836643
25	0xbdaa13a0	-0.083045244
26	0xbf0a25d9	-0.53964
27	0x3dc2fc34	0.0952076
28	0x3e344a92	0.17606571
29	0x3ed94dd5	0.42442194
30	0x3e9e1adf	0.30879876
31	0xbe87d752	-0.26531464
32	0x3c3718e2	0.011175366
33	0x3ec62d7a	0.3870657
34	0x3cf28564	0.029604621
35	0xbd92b8b5	-0.07164136
36	0x3f46b986	0.77626836
37	0x3ea24779	0.31695154
38	0x3ee7f5d1	0.4530473
39	0x3e54a3da	0.2076563
40	0xbed28228	-0.41114926
41	0x3e340d95	0.17583306
42	0xbf524b84	-0.8214648
43	0xbf2abf6b	-0.6669833
44	0x3ebb299f	0.36555192
45	0x3ead2c6b	0.3382295
46	0x3e372045	0.17883404
47	0x3eb5f616	0.3553931
48	0x3f0c2a1a	0.5475174
49	0xbe9400c1	-0.28906825
50	0x3c4b72f4	0.012417544
51	0x3e8faec7	0.28063032
52	0xbe091c49	-0.13389696
53	0xbf26992b	-0.65077466
54	0x3e9f32f1	0.31093553
55	0x3e9b224c	0.30299604
56	0xbe3056b2	-0.17220572
57	0xbe3c9f18	-0.18420064
58	0xbea083ab	-0.31350455
59	0xbd109ba0	-0.035304666
60	0x3f064c8a	0.5246054
61	0xbe9c97cf	-0.3058457
62	0xbf528e3a	-0.8224827
63	0x3e5a5dd9	0.21324863
64	0xbf09216a	-0.5356661
65	0xbf216944	-0.6305125
66	0x3eeffc65	0.4687225
67	0x3e872910	0.26398516
68	0xbf0d4e88	-0.55197954
69	0xbe9f56ba	-0.31120855
70	0x3e966f3a	0.29381734
71	0x3e962894	0.29327834
72	0x3d8d7907	0.0690785
73	0x3ee46bc6	0.44613475
74	0x3e840ec6	0.2579252
75	0x3eb67688	0.35637307
76	0xbed46eec	-0.41490877
77	0x3f03ce10	0.514863
78	0xbea1c5f5	-0.31596342
79	0xbe26db61	-0.16294624
80	0x3e54295b	0.20718901
81	0xbf11749a	-0.56818545
82	0x3edd505e	0.43225378
83	0xbef74140	-0.4829197
84	0x3f0384ad	0.5137432
85	0xbcd3446c	-0.025789462
86	0xbd786235	-0.060640533
87	0xbd0cee5f	-0.034407016
88	0xbf344352	-0.7041522
89	0xbe289e51	-0.16466643
90	0xbd3260e5	-0.043549437
91	0xbec4f766	-0.3847
92	0x3ec15511	0.37760213
93	0xbebaa4ff	-0.36454007
94	0xbe75290e	-0.23941442
95	0xbddd4a98	-0.10805243
96	0xbe1a3dd5	-0.1506265
97	0x3f390290	0.72269535
98	0x3f0aaf94	0.5417416
99	0x3e5a01eb	0.21289794
100	0x3f29c5ed	0.66317636
101	0xbef051fd	-0.46937552
102	0x3ea1a62e	0.31572098
103	0xbe55a327	-0.20863019
104	0x3e88c53c	0.26712978
105	0xbe30c84a	-0.17263904
106	0x3ebd7a05	0.37007156
107	0x3d9adbe1	0.0756147
108	0x3e9fc399	0.31203917
109	0x3e15d760	0.1463294
110	0xbea977d4	-0.33099234
111	0x3eed5237	0.46351787
112	0xbebe7b05	-0.3720323
113	0x3ec85d36	0.39133614
114	0xbed801b4	-0.421888
115	0xbe701225	-0.23444422
116	0x3db36b11	0.08760656
117	0xbe0ecb2e	-0.13944694
118	0xbdd7fcae	-0.10546242
119	0x3f798f11	0.97483927
120	0x3ebd539c	0.3697785
121	0x3dcb84d1	0.09937442
122	0x3d2f8b02	0.042857178
123	0x3edad549	0.4274085
124	0xbde95dd7	-0.11394852
125	0xbe9efbe5	-0.31051555
126	0xbf04bcc6	-0.51850545
127	0xbe8c127c	-0.27357852
128	0x3e15679a	0.14590302
129	0x3f0c09ed	0.54702646
130	0x3f1bfb7d	0.60930616
131	0xbe7ee092	-0.24890354
132	0xbd75c3bb	-0.060001116
133	0xbe5ab6a2	-0.21358731
134	0xbea1d781	-0.3160973
135	0xbcf26db3	-0.029593324
136	0xbec58d38	-0.38584304
137	0xbf6128a7	-0.87952656
138	0x3cd3b031	0.02584085
139	0xbeee65e2	-0.46562105
140	0x3f0415bf	0.5159568
141	0x3f3cc6cb	0.73740834
142	0xbf8d898b	-1.10576
143	0xbd688b3a	-0.0567734
144	0xbe1ad726	-0.15121135
145	0xbe6dfea5	-0.2324167
146	0x3d8b7fcf	0.06811487
147	0xbc8a50ee	-0.016884293
148	0x3ebd4db4	0.36973345
149	0xbf43d99d	-0.76503927
150	0xbe3e7eb7	-0.18603025
151	0x3bcbff57	0.0062255072
152	0x3e85c804	0.26129162
153	0xbf004e74	-0.5011971
154	0x3e4a14fe	0.1973457
155	0x3f3c75e5	0.7361739
156	0x3ea6b8cf	0.32562873
157	0xbda7452a	-0.08167489
158	0xbf4ae0a0	-0.79249
159	0xbe21de3d	-0.15807433
160	0x3e00c65f	0.12575673
161	0x3f9b36a8	1.2126055
162	0xbd157255	-0.03648599
163	0x3f19adf8	0.6003108
164	0xbd011055	-0.031509716
165	0x3e4b5f63	0.19860606
166	0x3e9a7520	0.30167484
167	0xbe88824a	-0.26661903
168	0xbb7c5b1a	-0.003850645
169	0xbebed4f3	-0.37271842
170	0x3e8b7085	0.27234283
171	0xbf1554db	-0.58332604
172	0xbe6fb0b2	-0.23407248
173	0xbc13e533	-0.009026813
174	0x3ee0e2e7	0.43923113
175	0xbe678aee	-0.22611591
176	0x3c8e2116	0.017349761
177	0x3f1409e8	0.57827616
178	0xbec204dd	-0.37894335
179	0xbe45efc9	-0.19329752
180	0x3c98f895	0.01867322
181	0xbe92ac9c	-0.28647316
182	0x3f11e6bb	0.5699269
183	0x3e90189c	0.28143775
184	0x3f000e90	0.5002222
185	0x3f13cc71	0.5773383
186	0xbef6e294	-0.4821974
187	0xbed66dfb	-0.41880783
188	0xbee5118c	-0.4473995
189	0xbdbf6de4	-0.09347132
190	0xbeb66293	-0.3562208
191	0x3f36e8e3	0.71449107
192	0x3dce77ac	0.10081419
193	0x3efb85d0	0.49125528
194	0xbe8b6a1d	-0.27229396
195	0xbd1af709	-0.037833247
196	0x3eed82c7	0.46388838
197	0x3e172faa	0.14764276
198	0xbe84315c	-0.25818908
199	0xbf13bca5	-0.57709724
200	0x3e144f86	0.14483461
201	0x3e05d05c	0.13067764
202	0x3e4b86f4	0.198757
203	0x3f634414	0.88775754
204	0x3cd2bd80	0.025725126
205	0xbc4d4a87	-0.012529976
206	0xbf5bab93	-0.85808676
207	0xbf14a63c	-0.58066154
208	0xbe7ff35e	-0.24995181
209	0x3e704098	0.2346214
210	0x3eceeba3	0.40414152
211	0x3db0decb	0.086362444
212	0xbf1b2e1e	-0.60617244
213	0x3da64889	0.08119304
214	0x3e62041e	0.22071883
215	0x3f224c77	0.63397926
216	0x3e1648e3	0.14676242
217	0xbf9e7ba8	-1.2381487
218	0xbcc82727	-0.024432732
219	0x3ec1cfe6	0.37853926
220	0xbef01f8a	-0.46899062
221	0x3eb108c0	0.34576988
222	0xbefd9561	-0.4952803
223	0xbeea92a0	-0.4581499
224	0x3f294b2a	0.66130316
225	0xbf039cfd	-0.5141142
226	0x3f065d0f	0.52485746
227	0xbf67bf12	-0.90525925
228	0xbd166f32	-0.036727138
229	0x3e68b441	0.22725011
230	0xbf0ee9e8	-0.5582566
231	0x3f15fcfe	0.5858916
232	0xbf0267d5	-0.50939685
233	0x3e8ee136	0.27906197
234	0xbebd2cce	-0.36948246
235	0x3dc0b9cf	0.0941044
236	0xbec4ba7a	-0.3842352
237	0x3caeae33	0.021323299
238	0x3cc9bd86	0.024626505
239	0xbe49b14d	-0.19696541
240	0x3f218663	0.6309568
241	0x3f1ac90e	0.60463035
242	0x3eaf33d6	0.34219235
243	0xbf1f9581	-0.623375
244	0xbe57c712	-0.21072033
245	0xbf488c25	-0.78338844
246	0xbede2f3a	-0.43395406
247	0xbd889634	-0.06669274
248	0xbc92ea32	-0.017933939
249	0x3f3896f2	0.72105324
250	0x3f06ec7a	0.52704585
251	0x3ec50892	0.384831
252	0xbf0bb457	-0.5457205
253	0xbec5ccd3	-0.3863283
254	0x3d393917	0.04522046
255	0x3d3e08bb	0.046395045
